output/full.pt (torch, 10225 bytes, 5 tensors)

weight f4 [20, 1]
0	0x3ef62da6	0.48081702
1	0x3f496173	0.7866432
2	0x3f2bd550	0.67122364
3	0x3ec23687	0.37932226
4	0x3ef0680e	0.46954387
5	0x3ea6630a	0.32497436
6	0x3e0fb258	0.14032876
7	0x3ecec048	0.40381074
8	0x3f0e2662	0.5552732
9	0x3e925015	0.28576723
10	0x3e2e012e	0.16992638
11	0x3f26b837	0.6512484
12	0x3f19843b	0.5996739
13	0x3ec54f66	0.3853714
14	0x3f22b187	0.63552135
15	0x3f70d904	0.9408114
16	0x3f0cb09e	0.54956996
17	0x3e4ed20e	0.20197317
18	0x3f6ec1f7	0.93264717
19	0x3f548f0f	0.8303079

weight f4 [20, 20]
0	0x3cf761c7	0.030197991
1	0x3d841043	0.06448414
2	0x3d4dbfc2	0.050231703
3	0x3cac017c	0.020996802
4	0x3d1e580a	0.03865818
5	0x3d279a46	0.04091861
6	0x3d2a488f	0.041573104
7	0x3d7b7b8b	0.061397117
8	0x3d8ce861	0.0688026
9	0x3cf370c8	0.029716864
10	0x3d67da26	0.056604527
11	0x3d96ac9d	0.07357142
12	0x3d91e549	0.07123811
13	0x3d5fa71c	0.054602727
14	0x3d72cac0	0.05927539
15	0x3d275a0e	0.040857367
16	0x3cc3afe3	0.02388758
17	0x3d1b4dd7	0.03791603
18	0x3d85c1ef	0.065311305
19	0x3d83c018	0.06433123
20	0x3d063c69	0.032772455
21	0x3d581283	0.05275203
22	0x3d0d6e5f	0.034529086
23	0x3804b2fe	3.1637952e-05
24	0x3d1bf695	0.038076956
25	0x3a490500	0.00076682866
26	0x3d56cbe7	0.05244055
27	0x3d5a3d5e	0.05328118
28	0x3cfb9719	0.030711697
29	0x3cac052f	0.020998565
30	0x3d125548	0.03572586
31	0x3ccdf55a	0.025141407
32	0x3d3c07e9	0.04590598
33	0x3c8c3b74	0.017118193
34	0x3d5b5483	0.053547394
35	0x3d3d69cf	0.046243485
36	0x3d718310	0.05896288
37	0x3d5a76c9	0.05333594
38	0x3cdbb52b	0.026819786
39	0x3996f548	0.00028792978
40	0x3d2e77a2	0.04259456
41	0x3badd46b	0.005304863
42	0x3d0bfc7b	0.03417633
43	0x3d5d756c	0.05406706
44	0x3d1a2b50	0.037638962
45	0x3d0ce0d2	0.034394093
46	0x3c98f52b	0.018671593
47	0x3b527c04	0.0032117376
48	0x3cde8ffa	0.027168263
49	0x3d2f42d7	0.042788353
50	0x3c1010c6	0.008793062
51	0x3ca82acc	0.02052822
52	0x3c7d6623	0.015466246
53	0x3d58a324	0.052889958
54	0x3d2b9e71	0.04189915
55	0x00000000	0.0
56	0x3cf1432a	0.029450972
57	0x3c69b9b1	0.014265464
58	0x3b460c23	0.0030219636
59	0x3d25431f	0.040347215
60	0x3d3f1e39	0.046659682
61	0x3d91d790	0.071211934
62	0x3d8b90af	0.068147056
63	0x3d83a16f	0.064272754
64	0x3d7eef19	0.06223974
65	0x3d764c12	0.06013114
66	0x3d68823d	0.05676483
67	0x3d19152a	0.0373737
68	0x3d128b82	0.035777576
69	0x3ceec949	0.029148715
70	0x3d5fd672	0.05464787
71	0x3d5c8b78	0.053843945
72	0x3c83b03e	0.01607525
73	0x3cf45da9	0.029829817
74	0x3d6b02a1	0.057375554
75	0x3d6f5b4e	0.058436684
76	0x3c8aa299	0.016923236
77	0x3cf5f193	0.030022418
78	0x3d11af74	0.035567716
79	0x3d075ea5	0.033049244
80	0x3d47bb82	0.048762806
81	0x3d1b3372	0.03789086
82	0x3d413425	0.04716887
83	0x3d267ca5	0.040646214
84	0x3d691b36	0.056910716
85	0x3cd99814	0.026561774
86	0x3d3c9b3a	0.046046473
87	0x3d23d30c	0.03999619
88	0x3d35ee94	0.04441698
89	0x3d2a666b	0.04160158
90	0x3d8a3da3	0.067500375
91	0x3d024d03	0.031811725
92	0x3d676bae	0.056499176
93	0x3d38a96a	0.04508344
94	0x3d613e3f	0.054991003
95	0x3cb97510	0.022638828
96	0x3c968d84	0.018378027
97	0x3d081a7c	0.033228382
98	0x3d6249b4	0.05524607
99	0x3d82a656	0.06379382
100	0x3d51ae99	0.0511919
101	0x3d3ae3db	0.045627456
102	0x3d7c6834	0.061622813
103	0x3ca0f56b	0.019648274
104	0x3d6688e8	0.056282908
105	0x3d631047	0.055435445
106	0x3d908efa	0.070585206
107	0x3d5ffb3a	0.054682948
108	0x3d1b6333	0.0379364
109	0x3d5308ad	0.051521946
110	0x3d99ad0d	0.0750371
111	0x3ccc7277	0.024956925
112	0x3cec6447	0.02885641
113	0x3d42a661	0.047521953
114	0x3cef78f3	0.029232478
115	0x3cffacae	0.03121027
116	0x3ccca9e3	0.024983352
117	0x3d593022	0.05302442
118	0x3d25cdbc	0.040479407
119	0x3d82f76f	0.063948505
120	0x3d8efc69	0.06981737
121	0x3d02ff72	0.031981893
122	0x3d51d9a3	0.051232945
123	0x3d8c7b74	0.06859484
124	0x3d8c7dd2	0.06859936
125	0x3d32e796	0.04367789
126	0x3d845679	0.06461806
127	0x3d72eed6	0.059309803
128	0x3d829101	0.063753136
129	0x3d3b0cdb	0.045666557
130	0x3d31e081	0.043426994
131	0x3d169c30	0.036770046
132	0x3d52c224	0.05145468
133	0x3d728900	0.059212685
134	0x3c80f4fe	0.015741821
135	0x3c8aca6e	0.01694223
136	0x3d73a22a	0.059480824
137	0x3d1ecf41	0.03877187
138	0x3d3b6528	0.045750767
139	0x3d1b57e6	0.037925623
140	0x3d30f57f	0.043202873
141	0x3ce24a35	0.027623275
142	0x3d024519	0.031804178
143	0x3d51e521	0.051243905
144	0x3d8494f8	0.06473726
145	0x3d93dad1	0.0721947
146	0x3d102984	0.035195842
147	0x3cebd435	0.028787712
148	0x3cfad5a4	0.03061945
149	0x3d1297c8	0.03578928
150	0x3cdc4dc4	0.02689255
151	0x3cd8cc05	0.026464472
152	0x3d13f0d9	0.036118362
153	0x3d9088fe	0.07057379
154	0x3cdf3ea9	0.027251558
155	0x3c9c4925	0.019077847
156	0x3d015b05	0.031580944
157	0x3d84b2b8	0.064794004
158	0x3d1c9eee	0.038237505
159	0x3d428e56	0.047499023
160	0x3d5f4974	0.05451341
161	0x3d5452ec	0.051836893
162	0x3d38877c	0.045051083
163	0x3c88a364	0.016679473
164	0x3d699077	0.057022538
165	0x3c9bbc6f	0.01901075
166	0x3c5f568d	0.013631475
167	0x3d1f8772	0.03894753
168	0x3d40cd3d	0.04707073
169	0x3cc2cbe1	0.023778858
170	0x3d9889e3	0.07448175
171	0x3d22ba7b	0.039728623
172	0x3d258701	0.040411953
173	0x3cdea12a	0.027176458
174	0x3d219086	0.03944447
175	0x3d3e04d3	0.04639132
176	0x3cd504c1	0.026003243
177	0x3cef865c	0.029238872
178	0x3d1ccaed	0.038279463
179	0x3d4958a3	0.049156796
180	0x3d1b31e5	0.03788938
181	0x3d5b8455	0.053593
182	0x3d0d5b3f	0.034510847
183	0x3d912eb9	0.0708899
184	0x3d1702f3	0.036868047
185	0x3d6c08b1	0.057625476
186	0x3d180d5a	0.037122108
187	0x3c933d89	0.017973678
188	0x3d088efa	0.033339478
189	0x3d79cbcf	0.060985383
190	0x3d3a50f0	0.045487344
191	0x3d088cdf	0.03333747
192	0x3d7d5028	0.06184402
193	0x3d0c427c	0.034243092
194	0x3c9f976f	0.019481389
195	0x3d3eb3c8	0.04655817
196	0x3d76e3f5	0.06027599
197	0x3d6be3a3	0.05759014
198	0x3d1d79e3	0.03844632
199	0x3d75c96a	0.060006537
200	0x3d763960	0.06011331
201	0x3cf99b4a	0.030469555
202	0x3d8e78d3	0.06956639
203	0x3d58fe70	0.052977026
204	0x3cf74aa7	0.030186964
205	0x3c9edc29	0.01939209
206	0x3d4abf5f	0.049498912
207	0x3d2dde1b	0.042448144
208	0x3d5baff0	0.053634584
209	0x3cdffbb9	0.02734171
210	0x3d72eb61	0.059306506
211	0x3ce223fb	0.027605047
212	0x3d97eb72	0.074179545
213	0x3d617615	0.055044252
214	0x3d6b9266	0.057512663
215	0x3d5b41a8	0.05352941
216	0x3d705f0e	0.0586844
217	0x3d631f7e	0.055449955
218	0x3d85dc89	0.06536204
219	0x3d03a659	0.032141063
220	0x3d6fd300	0.058550835
221	0x3d8d34af	0.06894814
222	0x3d063e03	0.032773983
223	0x3cab7320	0.02092892
224	0x3d8b19ca	0.06792028
225	0x3d7bb20a	0.06144909
226	0x3cbb6157	0.022873564
227	0x3d38dcc8	0.04513243
228	0x3cae4a04	0.021275528
229	0x3ce1b3bd	0.027551526
230	0x3c1c2230	0.009529635
231	0x3cba50af	0.022743551
232	0x3d3820c2	0.044953115
233	0x3d7aa170	0.061189115
234	0x3d6f6e3b	0.058454733
235	0x3d1d86d4	0.03845866
236	0x3c69ad1e	0.014262466
237	0x3ceaa8ab	0.02864488
238	0x3d77e734	0.060523227
239	0x3d288549	0.041142736
240	0x3d80762e	0.06272541
241	0x3d3e2fa7	0.046432164
242	0x3d587a9e	0.05285131
243	0x3d53926c	0.05165331
244	0x3d1f7942	0.038934
245	0x3d87e65d	0.06635735
246	0x3d008803	0.03137971
247	0x3d528d23	0.05140413
248	0x3d200247	0.03906467
249	0x3d1194a4	0.035542145
250	0x3d2c03cf	0.04199582
251	0x3d2d1acf	0.042261895
252	0x3d1a28ea	0.037636675
253	0x3ccffec8	0.025390044
254	0x3c2870f5	0.010280837
255	0x3d23e994	0.04001768

weight f4 [20, 20]
0	0x3d15d9e2	0.036584742
1	0x3d81229a	0.06305428
2	0x3cb0e23b	0.02159225
3	0x3ce9b2f1	0.028527709
4	0x3d8cdfce	0.06878625
5	0x3c7c6400	0.015404701
6	0x3cf68acf	0.030095486
7	0x3d26bb0a	0.040705718
8	0x3d2322c3	0.039828073
9	0x3ce158f4	0.027508236
10	0x3c706d0e	0.014674438
11	0x3d4cdeca	0.050017156
12	0x3d1df603	0.038564693
13	0x3d7ff4f9	0.062489484
14	0x3d50db68	0.050990492
15	0x3d5cdb7a	0.053920247
16	0x3c3ab367	0.011395312
17	0x3c964886	0.018345129
18	0x3d7ec383	0.062198173
19	0x3d8bfa7a	0.06834884
20	0x3d4f2af7	0.050578084
21	0x3caf1759	0.021373438
22	0x3d7bdc02	0.061489113
23	0x00000000	0.0
24	0x3bbadaca	0.005702351
25	0x3d10ab92	0.035319872
26	0x3caca4ed	0.021074736
27	0x3c593d98	0.013259314
28	0x00000000	0.0
29	0x3c0478ce	0.008085443
30	0x3d783266	0.06059494
31	0x3c72ec78	0.014826886
32	0x3d5f194a	0.054467477
33	0x3d18b792	0.03728444
34	0x3d5b21bf	0.05349898
35	0x3d56c900	0.052437782
36	0x3d515785	0.051108856
37	0x3d509526	0.05092349
38	0x3caed235	0.021340469
39	0x3ca1f90e	0.019772079
40	0x3d06e549	0.032933507
41	0x3ce47aaf	0.027890531
42	0x3d7a75d9	0.061147545
43	0x3c6a8ff0	0.014316544
44	0x3d7131a6	0.05888524
45	0x3d7ca937	0.061684813
46	0x3cd3de13	0.02586273
47	0x3cf537f5	0.029933909
48	0x3d5e6bec	0.05430214
49	0x3d1f6fc3	0.038924944
50	0x3c8e33b2	0.017358635
51	0x3d0c28bf	0.034218546
52	0x3d30d9eb	0.043176573
53	0x3d217481	0.039417747
54	0x3cbb6b9b	0.022878459
55	0x3b16a0f9	0.002298413
56	0x3c93e301	0.01805258
57	0x3d153506	0.03642752
58	0x3be99e9d	0.007129504
59	0x3d5a0317	0.053225603
60	0x3c60faeb	0.0137316985
61	0x3cea5324	0.028604098
62	0x3d7b0245	0.06128146
63	0x3d3984e9	0.04529277
64	0x3d4c5794	0.04988821
65	0x3d893d38	0.0670113
66	0x3d799df2	0.060941644
67	0x3d84a180	0.06476116
68	0x3d1c128f	0.038103636
69	0x3d86be21	0.06579233
70	0x3d2d356c	0.042287275
71	0x3d0e6a1e	0.03476917
72	0x3d764b43	0.06013037
73	0x3d856fcc	0.06515464
74	0x3cb9d9a4	0.022686787
75	0x3cd3c6ba	0.025851596
76	0x3d5d3b98	0.05401191
77	0x3d6cf174	0.057847455
78	0x3d59659a	0.05307541
79	0x3d8f6154	0.07000986
80	0x3d83dec8	0.064389765
81	0x3cecaf7a	0.028892267
82	0x3d71b1a3	0.0590073
83	0x3c9e3cfb	0.019316187
84	0x3d28e63d	0.041235197
85	0x3d3c38bd	0.045952547
86	0x3cd34453	0.025789415
87	0x3d31b6a5	0.043387074
88	0x3cbf048d	0.0233176
89	0x3d001ddb	0.031278472
90	0x3d1d970c	0.038474128
91	0x3d3dec18	0.046367735
92	0x3d186dc0	0.03721404
93	0x3d4508fc	0.04810427
94	0x3d21dd1f	0.039517518
95	0x3d24ab7a	0.040202595
96	0x3d683564	0.056691542
97	0x3d1d047d	0.03833436
98	0x3d5d30d9	0.054001663
99	0x3d9ba3de	0.075996146
100	0x3d812eae	0.063077316
101	0x3d7baa85	0.061441917
102	0x3cc8cad7	0.024510784
103	0x3d32d335	0.043658454
104	0x3d849b3f	0.06474923
105	0x3d16154c	0.036641404
106	0x3d045b74	0.03231378
107	0x3d88e1dc	0.06683704
108	0x3d42a6b9	0.04752228
109	0x3ca03957	0.019558592
110	0x3d308ce3	0.04310311
111	0x3ccc6ad6	0.024953287
112	0x3d8c962c	0.068645805
113	0x3d1b6156	0.037934624
114	0x3ce8df17	0.02842669
115	0x3d080285	0.033205528
116	0x3cd986a5	0.026553461
117	0x3d4a89b6	0.049447738
118	0x3d72aa14	0.05924423
119	0x3d48a2cc	0.04898338
120	0x3cd7dd9e	0.026350792
121	0x3d734404	0.059391037
122	0x3cf6edbf	0.030142663
123	0x3d28f357	0.041247692
124	0x3cfb7c6e	0.030698981
125	0x3d8843bb	0.066535436
126	0x3d24ac5c	0.040203437
127	0x3d57ac16	0.05265435
128	0x3d1f410d	0.038880397
129	0x3d3518e2	0.044213183
130	0x3d941449	0.072304316
131	0x3d33d76c	0.043906614
132	0x3cef33eb	0.029199561
133	0x3d88b517	0.06675165
134	0x3c5c5163	0.0134471385
135	0x3cbabba1	0.022794547
136	0x3c4d3a61	0.012526126
137	0x3d80953d	0.06278465
138	0x3d418cfc	0.047253594
139	0x3d040a1a	0.032236196
140	0x3d0bc054	0.034118965
141	0x3d318790	0.043342173
142	0x3d52d10a	0.051468886
143	0x3d0262ab	0.03183238
144	0x3cc29eda	0.023757387
145	0x3d133c75	0.03594633
146	0x3d41451f	0.04718506
147	0x3d6cb597	0.057790365
148	0x3d7c3052	0.06156952
149	0x3d84c5dd	0.06483052
150	0x3d485ca8	0.04891649
151	0x3c89dcf3	0.01682899
152	0x3d44b1ca	0.048021115
153	0x3d12f161	0.035874728
154	0x3d6ce35c	0.057834014
155	0x3cc93199	0.024559783
156	0x3d418951	0.047250096
157	0x3cfa7694	0.03057412
158	0x3d4f4145	0.050599355
159	0x3d4b6058	0.049652427
160	0x3d477581	0.048696045
161	0x3d3491ac	0.044084236
162	0x3d2064a4	0.03915848
163	0x3d216265	0.039400477
164	0x3cda0a0f	0.026616124
165	0x3d80f8d6	0.06297462
166	0x3bbfd8e1	0.0058547114
167	0x3c978f95	0.018501082
168	0x3d11bbe8	0.035579592
169	0x3d0417f2	0.0322494
170	0x3d83ece6	0.06441669
171	0x3d82127c	0.06351182
172	0x3d4a13d7	0.049335327
173	0x3d31b677	0.043386903
174	0x3d2b86b2	0.041876502
175	0x3d82555c	0.06363937
176	0x00000000	0.0
177	0x3d78fc3c	0.060787424
178	0x3cafa62f	0.021441547
179	0x3ca81900	0.020519733
180	0x3d0e8fee	0.03480523
181	0x3d275e52	0.040861435
182	0x3cc52947	0.024067534
183	0x3cbf497e	0.023350473
184	0x3d3681ab	0.044557255
185	0x3d2a8a50	0.04163581
186	0x3d375174	0.044755414
187	0x3ce743e3	0.028230613
188	0x3d791f51	0.06082088
189	0x3d829171	0.06375397
190	0x3d20bf89	0.039245162
191	0x3c61b44a	0.013775894
192	0x3d522fc8	0.0513151
193	0x3cdb7a36	0.026791673
194	0x3d37483f	0.044746634
195	0x3c9e5239	0.019326316
196	0x3c95bad1	0.018277558
197	0x3d180356	0.037112556
198	0x3d731db1	0.059354488
199	0x3d666536	0.056248866
200	0x3d5e2587	0.054235008
201	0x3d985be8	0.07439405
202	0x3d35cd85	0.04438545
203	0x3d7c822d	0.061647583
204	0x3d613546	0.054982446
205	0x3d7c812d	0.06164663
206	0x3c952118	0.018204257
207	0x3d109720	0.035300374
208	0x3cc39b0d	0.023877645
209	0x3d24135e	0.040057532
210	0x3d6bef73	0.057601403
211	0x3d0ec8db	0.03485952
212	0x3d27cd8d	0.040967513
213	0x3d3182cd	0.043337632
214	0x3d3f03fb	0.046634655
215	0x3d12be71	0.03582615
216	0x3d16cb80	0.036815166
217	0x3d84a005	0.06475834
218	0x3cc930e9	0.024559455
219	0x3d2b2c53	0.041790318
220	0x3d02e888	0.03196004
221	0x3d21132b	0.03932492
222	0x3d77c421	0.060489777
223	0x3ca08cbd	0.01959836
224	0x3d1d321e	0.038377874
225	0x3d63d2ed	0.055621076
226	0x3d60e9d0	0.05491048
227	0x3d19d6fb	0.037558537
228	0x3d04a10b	0.032380145
229	0x3c815fae	0.015792694
230	0x3d00103a	0.031265475
231	0x3cb1b0ed	0.02169081
232	0x3c42a304	0.011879686
233	0x3d5e55bd	0.054280985
234	0x3c8c1c9b	0.017103484
235	0x3c991170	0.018685073
236	0x3ce7a0f8	0.028274998
237	0x3d00ae39	0.03141615
238	0x3ca1d546	0.019755017
239	0x3c702bea	0.014658907
240	0x3d72bd3c	0.0592625
241	0x3d6d1f87	0.057891395
242	0x3d400c49	0.046886716
243	0x3d0eab3d	0.034831274
244	0x3d28fdec	0.041257784
245	0x3d256671	0.0403809
246	0x3d087319	0.03331289
247	0x3d106cf8	0.03526017
248	0x3d160a1b	0.03663073
249	0x3d0eab56	0.034831367
250	0x3c388f3d	0.011264619
251	0x3d09ffa8	0.03369108
252	0x3d12af24	0.03581156
253	0x3d15bd1a	0.036557294
254	0x3d187c81	0.03722811
255	0x3d72f0f2	0.059311815

weight f4 [20, 20]
0	0x3d52183b	0.05129264
1	0x3d6120d9	0.054962967
2	0x3d33c4d6	0.04388889
3	0x3c9e0a37	0.01929198
4	0x3d6d0249	0.057863507
5	0x3d59a324	0.0531341
6	0x3d25197e	0.040307514
7	0x3d74b715	0.059744913
8	0x3d2e5ed2	0.042570896
9	0x3cf39045	0.029731879
10	0x3d62151c	0.055195913
11	0x3d57dfe1	0.052703742
12	0x3d85fdec	0.065425724
13	0x3d537c43	0.051632177
14	0x3caa2823	0.020771092
15	0x3c431c48	0.011908598
16	0x3d6603a3	0.056155812
17	0x3b928e17	0.004472505
18	0x3cd88350	0.026429802
19	0x3c443c98	0.011977337
20	0x3cd786c3	0.026309377
21	0x3d0edb04	0.03487684
22	0x3d51a90b	0.051186603
23	0x3cfdaa00	0.030964851
24	0x3d38f624	0.045156613
25	0x3d45501c	0.0481721
26	0x3ceb3c17	0.028715177
27	0x3d792f0f	0.060835894
28	0x3d1dc5d7	0.038518753
29	0x3cfa5e9c	0.030562691
30	0x3d7a362b	0.061086815
31	0x00000000	0.0
32	0x3d6f0566	0.058354758
33	0x3ceadafc	0.028668873
34	0x3cbf36a1	0.023341479
35	0x3cd199e5	0.025586078
36	0x3d257154	0.04039128
37	0x3d6345c5	0.05548646
38	0x00000000	0.0
39	0x3c2b547a	0.0104571525
40	0x3c60f6d5	0.013730724
41	0x3d3e031e	0.04638969
42	0x3cfdaa0f	0.03096488
43	0x3c881257	0.016610308
44	0x3ca6f760	0.02038163
45	0x3d826c0f	0.06368267
46	0x3ccb0ae3	0.024785465
47	0x3d07f407	0.033191707
48	0x3d0747c1	0.033027414
49	0x3d2981f0	0.041383684
50	0x3c8513a9	0.016244726
51	0x3d013765	0.03154697
52	0x3cf9592b	0.030438026
53	0x3d14fb9b	0.036372762
54	0x3d29e737	0.04148027
55	0x3cbb33eb	0.022851905
56	0x3cf62d63	0.030050939
57	0x3d45e2ba	0.048311926
58	0x3d39838e	0.045291476
59	0x3d2f0891	0.04273278
60	0x3d529532	0.051411815
61	0x3d092f03	0.0334921
62	0x3d6382fe	0.055544846
63	0x3ccb4d1f	0.024817048
64	0x3c939a18	0.018017814
65	0x3cab730d	0.020928884
66	0x3cd4eda7	0.025992228
67	0x3d82b143	0.06381466
68	0x3d17fe3e	0.0371077
69	0x3cad0525	0.021120617
70	0x3d663706	0.05620482
71	0x3d0dfb24	0.034663334
72	0x3cf7c9af	0.030247537
73	0x3d388193	0.045045447
74	0x3d29a85a	0.04142032
75	0x3cc1acd9	0.02364199
76	0x3d22c372	0.039737172
77	0x3d46c215	0.048524935
78	0x3d3dd78f	0.04634815
79	0x3d30e9f2	0.043191858
80	0x3d74cce0	0.059765697
81	0x3cd421f0	0.025895089
82	0x3cfae3f1	0.030626269
83	0x3cfd4f24	0.030921526
84	0x3d30ca98	0.04316196
85	0x3cb2c76e	0.021823611
86	0x3d780ace	0.06055718
87	0x3d425f94	0.04745443
88	0x3c9af46e	0.018915381
89	0x3d220c38	0.039562434
90	0x3d29b6c2	0.041434057
91	0x3ce11abc	0.027478568
92	0x3d488073	0.048950624
93	0x3d3b6274	0.04574819
94	0x3d2a5539	0.04158518
95	0x3d1771fc	0.03697394
96	0x3d6c1c69	0.05764428
97	0x3d42c7a8	0.04755369
98	0x3cf285f5	0.029604891
99	0x3cce0302	0.025147919
100	0x3d235b13	0.039881777
101	0x3d82f516	0.06394403
102	0x3d0bd9b6	0.034143172
103	0x00000000	0.0
104	0x3cc4c230	0.024018377
105	0x3d13b017	0.036056604
106	0x3d494b64	0.049144164
107	0x3d08b933	0.033379745
108	0x3d1907b3	0.03736086
109	0x3c58e9af	0.013239308
110	0x3d7bffa4	0.061523095
111	0x3cc252e0	0.023721159
112	0x3d82ce86	0.063870475
113	0x3d7228c6	0.059120916
114	0x3cb0cff6	0.021583539
115	0x3c03b636	0.008039048
116	0x3bf1fc41	0.0073848073
117	0x3d3ee958	0.046609253
118	0x3cef6792	0.02922419
119	0x3d5d5ac9	0.054041658
120	0x3d235e61	0.03988493
121	0x3d8a2c2b	0.067467056
122	0x3cb74562	0.022371951
123	0x3d708747	0.05872276
124	0x3d5c960c	0.053854033
125	0x3d245d01	0.040127758
126	0x3d7b5d79	0.06136844
127	0x3d290e9f	0.04127371
128	0x3cf2ff3f	0.029662726
129	0x3d501505	0.050801296
130	0x3c8fc66b	0.017550668
131	0x3cbe7ce8	0.02325292
132	0x3c8f680c	0.017505668
133	0x3d4f0bc8	0.050548345
134	0x3cf0dfe8	0.029403642
135	0x3d6aad40	0.05729413
136	0x3a0b0dcb	0.00053044845
137	0x3d0e2efd	0.03471278
138	0x3ccb285d	0.02479952
139	0x3d6a6bb0	0.057231605
140	0x3d762aab	0.060099285
141	0x3d9451af	0.072421424
142	0x3d3a8372	0.045535512
143	0x3d37d6e9	0.04488269
144	0x3d0e345d	0.034717906
145	0x3d45d2d2	0.048296757
146	0x3cb971e2	0.022637311
147	0x3d62a49e	0.055332772
148	0x3d5d8f8d	0.05409198
149	0x3d1de926	0.038552426
150	0x3d760fcd	0.060073663
151	0x3d45cc4f	0.048290547
152	0x3d4c75d7	0.04991707
153	0x3d1150f0	0.03547758
154	0x3cb1dff9	0.021713244
155	0x3d1d663c	0.038427576
156	0x3cf86657	0.030322237
157	0x3d38f60a	0.045156516
158	0x3c8b4123	0.016998833
159	0x3ca326f3	0.019916033
160	0x3bac4c97	0.0052581537
161	0x3d8d26b4	0.06892148
162	0x3c81bd49	0.015837329
163	0x3d0553dd	0.03255068
164	0x3d09998f	0.03359371
165	0x3cc2ef67	0.023795797
166	0x3cec9470	0.028879374
167	0x3d14e190	0.036347926
168	0x3d7a8f79	0.061171982
169	0x3d172e1c	0.036909208
170	0x3ca33423	0.019922322
171	0x3d5bcabe	0.053660147
172	0x3d16f590	0.03685528
173	0x3d06c445	0.03290202
174	0x3d54929a	0.051897623
175	0x3c5c0537	0.013428978
176	0x3cb675e4	0.022273012
177	0x3cb22c0c	0.021749519
178	0x3cb7914f	0.022408156
179	0x3d12b575	0.035817582
180	0x3d249f84	0.04019119
181	0x3d06f851	0.032951657
182	0x3d02fa73	0.03197713
183	0x3d803a9f	0.06261181
184	0x3beeb3e5	0.0072846287
185	0x3d53205b	0.05154453
186	0x3d1c16d8	0.038107723
187	0x3d556a2c	0.052103207
188	0x3cdaf0c7	0.02672614
189	0x3d3c0510	0.045903265
190	0x3cbb2d07	0.02284862
191	0x3d2c44c0	0.042057753
192	0x3d78d64f	0.060751256
193	0x3d48a350	0.048983872
194	0x3cff24ee	0.03114554
195	0x3d011d64	0.03152217
196	0x3d4c8ab9	0.049936984
197	0x3d7ff67b	0.06249092
198	0x3d127da4	0.03576435
199	0x3cfc3cef	0.030790774
200	0x3d6488d3	0.05579455
201	0x3d1a9cdd	0.037747253
202	0x3d280c28	0.041027218
203	0x3d424470	0.04742855
204	0x3cbd71e0	0.023125589
205	0x3be01565	0.006838488
206	0x3d0718a8	0.0329825
207	0x3d64dd44	0.055875078
208	0x3cbf14d9	0.02332537
209	0x3d69179c	0.05690728
210	0x3c9ae6aa	0.018908817
211	0x3d4da68e	0.050207667
212	0x3ca8bfce	0.020599272
213	0x3d165705	0.036704082
214	0x3cfdfd58	0.031004593
215	0x3d0bd9f2	0.034143396
216	0x3b615a76	0.0034386194
217	0x3ce6e6bc	0.028186195
218	0x3d18eb58	0.037333816
219	0x3d5076d9	0.050894592
220	0x3c8d1aed	0.017224753
221	0x3d613946	0.05498626
222	0x3d0df0c1	0.03465343
223	0x3d15916d	0.036515642
224	0x3d6ae954	0.057351425
225	0x3d0f41cd	0.034974862
226	0x3d4c1b67	0.04983082
227	0x3d80501d	0.062652804
228	0x3c86b7af	0.016445009
229	0x3d0317a1	0.032004956
230	0x3cbbb9cb	0.022915741
231	0x3cb6b9fe	0.022305485
232	0x3991f981	0.0002784245
233	0x3cf6a2b8	0.030106887
234	0x3d2b2cd2	0.04179079
235	0x3d3974c6	0.04527738
236	0x3c200720	0.009767324
237	0x3ca16700	0.019702435
238	0x3d74c403	0.059757244
239	0x3d3f762f	0.046743568
240	0x3d413c3c	0.047176585
241	0x3cb80f6c	0.022468291
242	0x3cd3e966	0.025868129
243	0x3d2a0dc1	0.041517023
244	0x3d5916fb	0.05300043
245	0x3d87b500	0.0662632
246	0x3cd10615	0.025515595
247	0x3d31a140	0.04336667
248	0x3c93369a	0.017970372
249	0x3d455daf	0.048185047
250	0x3d262966	0.040566824
251	0x3d06f949	0.03295258
252	0x3cc6fdaa	0.024290878
253	0x3cee5d62	0.029097263
254	0x3d544967	0.051827814
255	0x3ce5cda9	0.028052168

parameters f4 [2, 3]
0	0x3e04a116	0.12952074
1	0x3f38ced0	0.7219057
2	0x3e82eacc	0.2556976
3	0x40000000	2.0
4	0x3faef6c8	1.3669062
5	0x3d4a374e	0.04936915
